2019-06-30 19:16:46,798 root INFO Start training
2019-06-30 19:16:46,798 root INFO Creating model: FSRCNN
_________________________________________________________________
Layer (type)                 Output Shape              Param #   
=================================================================
conv2d (Conv2D)              (None, 16, 16, 48)        1248      
_________________________________________________________________
p_re_lu (PReLU)              (None, 16, 16, 48)        48        
_________________________________________________________________
conv2d_1 (Conv2D)            (None, 16, 16, 16)        784       
_________________________________________________________________
p_re_lu_1 (PReLU)            (None, 16, 16, 16)        16        
_________________________________________________________________
conv2d_2 (Conv2D)            (None, 16, 16, 16)        2320      
_________________________________________________________________
p_re_lu_2 (PReLU)            (None, 16, 16, 16)        16        
_________________________________________________________________
conv2d_3 (Conv2D)            (None, 16, 16, 16)        2320      
_________________________________________________________________
p_re_lu_3 (PReLU)            (None, 16, 16, 16)        16        
_________________________________________________________________
conv2d_4 (Conv2D)            (None, 16, 16, 16)        2320      
_________________________________________________________________
p_re_lu_4 (PReLU)            (None, 16, 16, 16)        16        
_________________________________________________________________
conv2d_5 (Conv2D)            (None, 16, 16, 16)        2320      
_________________________________________________________________
p_re_lu_5 (PReLU)            (None, 16, 16, 16)        16        
_________________________________________________________________
conv2d_6 (Conv2D)            (None, 16, 16, 48)        816       
_________________________________________________________________
p_re_lu_6 (PReLU)            (None, 16, 16, 48)        48        
_________________________________________________________________
conv2d_transpose (Conv2DTran (None, 32, 32, 1)         3889      
=================================================================
Total params: 16,193
Trainable params: 16,193
Non-trainable params: 0
_________________________________________________________________
2019-06-30 19:16:46,975 root INFO None
2019-06-30 19:16:46,975 root INFO Checkpoint found. Loading weights.
Epoch 1001/2000
  1/666 [..............................] - ETA: 48:30 - loss: 8.72
…
